chatbot/data.pth (torch, 5418 bytes, 6 tensors)

l1.weight f4 [8, 54]
-0.19959804 -0.5610904 0.38928777 0.06407526 0.42401478 0.17989916 0.5273068 0.26723784
0.6368767 0.22143877 0.16893256 0.6510845 0.73138887 0.60610795 -0.084174454 0.48421928
0.1875566 0.0286857 0.68172973 0.17896162 -0.23983406 0.2365552 0.1062133 0.43787515
0.53460157 -0.11946948 0.663692 -0.49069536 0.4198385 -0.6007712 0.059742615 0.6081829
-0.09531528 0.48431867 -0.1409941 0.45283762 0.4860276 0.5177556 0.5241084 0.5499896
0.096173726 0.70635796 0.5808806 -0.18035069 0.7346207 -0.29414552 -0.6994584 -0.25919595
0.33056253 0.79631674 0.40319926 0.44842038 0.31596896 0.28044647 0.55666524 0.8376081
0.3932149 -0.15554324 -0.12291903 -0.2796048 0.45139018 0.2421749 0.33139393 0.17714754
-0.12607567 -0.12703817 0.26928192 -0.06632204 0.52363217 -0.2232161 -0.1814303 -0.42529973
-0.4050453 -0.43465835 0.52908 -0.4323312 -0.45841873 -0.66924226 -0.15092434 -0.19482988
-0.27597618 0.6861287 -0.09501549 0.7425589 -0.28698403 -0.12664604 0.4438355 0.40865096
0.7105606 -0.15160301 0.021693863 0.38468274 0.25634086 0.3104489 -0.40121102 -0.5423558
0.045682818 0.70653313 0.25253364 0.71222335 1.1373703 0.6474082 -0.1312642 -0.43005162
-0.09813633 -0.23630817 0.45889673 0.31062898 -0.26647606 0.44419318 0.4944284 0.30392256
0.27046606 0.10597962 0.13615786 0.29005986 0.47702584 0.33699477 0.06865714 0.49406442
0.27056852 0.48529115 0.4127053 0.4320202 0.25065598 0.22372839 -0.30576214 0.36258703
-0.22227293 0.30213735 0.30010533 0.48345894 0.47528365 0.12345529 -0.28121874 0.5713978
-0.26175132 0.60457873 0.13930286 0.4587857 -0.11364864 0.48739195 0.75523114 0.38813215
-0.1808419 0.40953186 0.2566004 0.1799036 0.21186638 -0.50651735 0.35519493 0.42902568
0.6979518 0.6701068 -0.51277834 -0.16911101 0.1579674 -0.43105438 0.23745468 -0.37971038
0.37870175 0.0067997943 -0.18003358 0.27212963 -0.15720294 0.58057827 -0.2725206 -0.52568674
-0.066609755 -0.08408162 -0.12758459 -0.03728082 0.5732357 -0.076845676 -0.14103441 -0.09344564
0.25514162 -0.12561466 0.53714764 -0.5257875 -0.046926953 0.7051503 -0.14949939 0.44793588
0.6105764 -0.12539886 -0.1317949 0.5460816 -0.039107252 0.22419342 -0.17810683 0.5416103
-0.24837656 -0.10084225 -0.09254032 -0.099587105 0.1472256 -0.07045223 -0.28262892 0.00078998023
-0.054762598 -0.10856742 -0.13647886 -0.054678563 -0.13482815 0.1733859 -0.1357865 0.30216476
-0.52562714 -0.19599801 0.3784283 -0.13171333 0.019310098 -0.03742546 -0.1640353 -0.12814625
0.40039027 0.21904413 -0.43199256 0.12533002 -0.23922576 0.8247352 -0.16290417 -0.25185072
-0.4017894 -0.46609938 -0.055077467 0.20617457 -0.023624752 0.3500527 -0.2624258 0.10805629
0.060890313 0.6360832 0.13717425 -0.19882002 0.12324145 -0.20022388 -0.19740365 0.24496152
0.13167988 -0.118535176 0.31781322 -0.26754773 0.280247 -0.298032 0.46296924 0.26484743
0.3070814 -0.3195739 -0.11510414 0.2567195 0.16149673 -0.41323724 -0.30878285 -0.2083438
00000000: 6e63 4cbe 9fa3 0fbf ba50 c73e e439 833d
00000010: 7718 d93e 7c37 383e 94fd 063f 66d3 883e
00000020: 5a0a 233f d8c0 623e a8fc 2c3e 79ad 263f
00000030: 4d3c 3b3f e429 1b3f a863 acbd 97eb f73e
00000040: d60e 403e 46fe ea3c d785 2e3f b741 373e
00000050: 0f97 75be 873b 723e 5c86 d93d 2c31 e03e
00000060: a6db 083f 6aac f4bd b8e7 293f 6c3c fbbe
00000070: 12f5 d63e 24cc 19bf acb4 743d e0b1 1b3f
00000080: a834 c3bd 9ef8 f73e c260 10be 55da e73e
00000090: 9cd8 f83e a28b 043f f82b 063f 1ecc 0c3f
000000a0: bbf6 c43d e0d3 343f 97b4 143f daad 38be
000000b0: 1a10 3c3f 3e9a 96be b50f 33bf 55b5 84be
000000c0: 7e3f a93e 6adb 4b3f 2270 ce3e 5b97 e53e
000000d0: afc6 a13e ae96 8f3e 9d81 0e3f 7c6d 563f
000000e0: 7753 c93e ba46 1fbe f9bc fbbd 5c28 8fbe
000000f0: 9d1c e73e b2fc 773e 77ac a93e 2a66 353e
00000100: fb19 01be 4b16 02be 52df 893e dad3 87bd
00000110: c20c 063f c392 64be ddc8 39be e3c0 d9be
00000120: 1962 cfbe 8a8b debe c971 073f 845a ddbe
00000130: dcb5 eabe 7653 2bbf e98b 1abe 7c81 47be
00000140: c04c 8dbe 21a6 2f3f 7b97 c2bd 5718 3e3f
00000150: 92ef 92be 80af 01be 683e e33e b33a d13e
00000160: 4de7 353f d23d 1bbe 54b7 b13c 23f5 c43e
00000170: 1c3f 833e 29f3 9e3e 886b cdbe d4d7 0abf
00000180: e81d 3b3d 5bdf 343f 174c 813e 4554 363f
00000190: 5a95 913f 8bbc 253f 1f6a 06be ba2f dcbe
000001a0: b3fb c8bd c5fa 71be 83f4 ea3e c30a 9f3e
000001b0: 8d6f 88be 4a6d e33e b825 fd3e bd9b 9b3e
000001c0: 877a 8a3e d80b d93d f76c 0b3e ba82 943e
000001d0: bb3c f43e 948a ac3e 1d9c 8c3d 03f6 fc3e
000001e0: f587 8a3e 1578 f83e 1c4e d33e c031 dd3e
000001f0: fb55 803e 0e19 653e db8c 9cbe 02a5 b93e
00000200: 849b 63be bfb1 9a3e 68a7 993e ee87 f73e
00000210: 6158 f33e 21d6 fc3d e7fb 8fbe 2047 123f
00000220: 4504 86be acc5 1a3f 69a5 0e3e f6e5 ea3e
00000230: 9ec0 e8bd 708b f93e d456 413f 42b9 c63e
00000240: 9e2e 39be 29ae d13e 2161 833e a638 383e
00000250: 80f3 583e 1fab 01bf 1cdc b53e 41a9 db3e
00000260: f8ac 323f 1f8c 2b3f 7145 03bf 702b 2dbe
00000270: 35c2 213e 29b3 dcbe 5227 733e 6669 c2be
00000280: 32e5 c13e cfd0 de3b b95a 38be 9354 8b3e
00000290: cff9 20be c7a0 143f d287 8bbe 6893 06bf
000002a0: b26a 88bd fc32 acbd 89a5 02be c6b3 18bd
000002b0: 93bf 123f 4461 9dbd 536b 10be 6d60 bfbd
000002c0: eca1 823e 21a1 00be 8282 093f 029a 06bf
000002d0: 7a36 40bd bb84 343f 5e16 19be da57 e53e
000002e0: bc4e 1c3f 8f68 00be 3ef5 06be 01cc 0b3f
000002f0: ed2e 20bd f692 653e a361 36be f9a6 0a3f
00000300: 6d56 7ebe 6286 cebd c785 bdbd 53f4 cbbd
00000310: 4fc2 163e 4249 90bd bdb4 90be ad16 4f3a
00000320: bf4e 60bd 9858 debd 1dc1 0bbe a1f6 5fbd
00000330: 6410 0abe 138c 313e 9e0b 0bbe 57b5 9a3e
00000340: 808f 06bf b4b3 48be 5bc1 c13e dcdf 06be
00000350: 3630 9e3c 704b 19bd dff8 27be c538 03be
00000360: f4ff cc3e 1b4d 603e 212e ddbe 8356 003e
00000370: 99f7 74be d921 533f 5ad0 26be 94f2 80be
00000380: 57b7 cdbe 94a4 eebe e998 61bd 6d1f 533e
00000390: b288 c1bc 1c3a b33e ad5c 86be 9e4c dd3d
000003a0: 1f68 793d 59d6 223f 6877 0c3e 7a97 4bbe
000003b0: 0366 fc3d 7d07 4dbe 2f24 4abe 31d7 7a3e
000003c0: 17d7 063e 92c2 f2bd 6ab8 a23e 04fc 88be
000003d0: 897c 8f3e a697 98be 4e0a ed3e 159a 873e
000003e0: c639 9d3e 319f a3be b8bb ebbd bd70 833e
000003f0: 665f 253e d593 d3be c918 9ebe 1458 55be

l1.bias f4 [8]
0.6994707 0.48163003 0.73407626 0.52562994 0.89686203 0.6199582 0.57765317 0.31328198
00000000: 8310 333f 3698 f63e 6cec 3b3f af8f 063f
00000010: c098 653f 95b5 1e3f 14e1 133f 7f66 a03e

l2.weight f4 [8, 8]
-0.52158654 1.3892972 0.33647677 -0.6027442 -0.33487457 0.9452358 0.50231224 0.7554608
-0.3468822 1.1688455 -0.65090966 -0.35226515 0.68951505 0.27192855 1.2640665 1.0072426
-0.32855672 -0.20386995 -0.17972744 0.324091 -0.29950902 -0.13758375 -0.31179565 0.18350759
0.18948613 0.34720814 0.9485919 1.2551501 0.13485783 1.4109364 -1.253129 0.054668598
0.90350443 0.6616526 1.096679 -0.7908819 -0.58412373 0.17433095 -0.36060995 0.94937205
-0.40522972 0.5779101 0.86892694 -0.58760816 1.1435218 -0.26601648 1.1190455 -1.14181
1.2014967 -0.2396 0.545912 -0.7111715 1.1054528 -0.5996793 1.3274505 0.53678524
0.12478745 -0.0045078695 0.0053930283 -0.28139973 -0.18005554 -0.24479079 -0.18357013 -0.3380952
00000000: b286 05bf 7ed4 b13f af46 ac3e 724d 1abf
00000010: ae74 abbe f9fa 713f 8997 003f e165 413f
00000020: 8b9a b1be bb9c 953f 04a2 26bf 195c b4be
00000030: 0f84 303f 383a 8b3e eecc a13f 53ed 803f
00000040: 9638 a8be 49c3 50be 780a 38be 41ef a53e
00000050: 3f59 99be c1e2 0cbe aea3 9fbe 6ae9 3b3e
00000060: a708 423e 44c5 b13e ebd6 723f c2a8 a03f
00000070: 2c18 0a3e 9099 b43f 8866 a0bf 2eec 5f3d
00000080: 114c 673f 1162 293f fa5f 8c3f 3c77 4abf
00000090: 2289 15bf d083 323e dea1 b8be 0c0a 733f
000000a0: 457a cfbe ebf1 133f ff71 5e3f 7d6d 16bf
000000b0: ec5e 923f 5033 88be e23c 8f3f d526 92bf
000000c0: a5ca 993f b459 75be e4c0 0b3f 560f 36bf
000000d0: 7a7f 8d3f 9584 19bf e6e9 a93f c26a 093f
000000e0: 9090 ff3d c0b6 93bb 00b8 b03b a013 90be
000000f0: 7b60 38be 70aa 7abe cff9 3bbe d01a adbe

l2.bias f4 [8]
-0.2678057 0.2985584 -0.3057109 0.5787436 -0.31303763 0.40140238 0.5037197 -0.34997886
00000000: d41d 89be a6dc 983e 2486 9cbe 8a28 143f
00000010: 7846 a0be 9d84 cd3e c6f3 003f 6e30 b3be

l3.weight f4 [7, 8]
-1.0565606 -1.6696594 0.14462602 -1.2089142 0.13511321 0.2147758 0.54872143 0.31219235
0.57509387 0.06463441 -0.0131774545 -0.16455674 -0.08899806 -0.19747433 -1.590268 0.35110155
-0.75981635 0.13456006 -0.3407862 -1.833195 -1.6334337 0.8101397 0.444135 0.32846418
-1.0695353 -1.2178137 -0.20861648 0.9428824 -0.37866864 -0.64452165 -0.1790127 -0.07250026
-0.8268735 0.402737 0.34542462 -1.6627605 -0.0023841264 -1.4690752 0.6095508 -0.0672383
0.49462518 -0.24216603 0.28508618 -0.7217477 0.4718654 -1.3222287 -0.08909356 0.105436414
0.734579 0.6745212 -0.2869479 -1.0715916 -1.04344 0.3192174 -0.50163394 -0.11125259
00000000: 613d 87bf 66b7 d5bf d818 143e b3bd 9abf
00000010: 1e5b 0a3e 30ee 5b3e 0279 0c3f add7 9f3e
00000020: 5a39 133f 0c5f 843d 40e6 57bc 9081 28be
00000030: 9d44 b6bd b636 4abe e78d cbbf 95c3 b33e
00000040: 5383 42bf 1dca 093e 877b aebe 22a6 eabf
00000050: 5b14 d1bf 5165 4f3f aa65 e33e 752c a83e
00000060: 88e6 88bf 52e1 9bbf 8f9f 55be be60 713f
00000070: dbe0 c1be 5fff 24bf 1b4f 37be 047b 94bd
00000080: fbad 53bf 8b33 ce3e 7fdb b03e 56d5 d4bf
00000090: 013f 1cbb a80a bcbf 850b 1c3f 3cb4 89bd
000000a0: 833f fd3e 5ffa 77be d1f6 913e 75c4 38bf
000000b0: 5798 f13e ca3e a9bf af76 b6bd 0cef d73d
000000c0: 5f0d 3c3f 6cad 2c3f d6ea 92be ea29 89bf
000000d0: 718f 85bf 7770 a33e 156b 00bf 66d8 e3bd

l3.bias f4 [7]
-0.42202258 -0.3837075 -0.116545595 0.43525565 -0.18797351 -0.2947752 -0.3025358
00000000: 5813 d8be 4f75 c4be 75af eebd d4d9 de3e
00000010: 217c 40be c6ec 96be f9e5 9abe
